heat-equation/best_heat_pinn.pt (torch, 349901 bytes, 33 tensors)

input_layer.weight f4 [64, 2]
000000 03 46 93 be 7e 0f 99 be 90 89 22 3e d0 a7 97 be
       -0.28764352 -0.29894632 0.15872788 -0.29620218
000010 e7 3f 9d be 7f f3 2b 3e c5 90 40 be a2 0f 28 3e
       -0.30712816 0.16792105 -0.18805225 0.16412213
000020 33 cf 34 bc 93 01 1c 3e 00 d9 6b 3d 6b 95 5f be
       -0.011035728 0.15234976 0.057579994 -0.21834342
000030 58 67 3c 3d fd 59 a5 3e 94 25 87 bd 12 f3 77 bd
       0.045996994 0.32295218 -0.06598964 -0.060534544
000040 4e 38 04 3e af 5a 84 bc bc 8c 7e be 99 6f 9d 3e
       0.12912104 -0.016156523 -0.24858373 0.30749205
000050 3d 18 ca be 3f 37 74 be 1d c9 7d 3c 2a fb d9 3c
       -0.39471617 -0.238492 0.015489844 0.026609022
000060 be c2 3d be 54 52 9e be 10 02 b2 3e fa 22 d8 3d
       -0.1853132 -0.30922186 0.347672 0.10553546
000070 44 da a2 3e 9a d9 f7 bd 47 15 f1 be 64 73 54 be
       0.31807148 -0.12102051 -0.47086546 -0.20747143
000080 30 06 ab 3b c9 03 74 3d 46 64 a7 bd 34 ad 62 be
       0.0052192435 0.059573922 -0.081734225 -0.22136384
000090 3f 46 bb bd 76 be b7 3d 9b 9b 9c bd fa 7f b2 3e
       -0.09144258 0.089718744 -0.07646867 0.34863263
0000a0 6c f6 c7 bc fb dc 19 3c 9a 0f 9a bc 4c d8 98 3e
       -0.024409495 0.009391065 -0.018806268 0.2985252
0000b0 d5 75 ab 3d b5 89 b9 3c 57 c6 36 3e b4 16 95 3d
       0.08372084 0.022648672 0.17849098 0.07279721
0000c0 f5 6d 48 3e 61 d3 1d 3e 9a 3d 09 3e b5 90 65 3e
       0.19573195 0.15412666 0.13402405 0.22418483
0000d0 ef 0b 6d 3e ef e3 73 be 5a e5 c0 3c 3e ba 47 bd
       0.23149084 -0.23817419 0.023546863 -0.0487616
0000e0 69 cd 92 3e f3 fb 56 be 3a e9 9f 3d 69 74 98 be
       0.2867234 -0.20994548 0.07808156 -0.29776314
0000f0 df 5f a7 bb 81 a5 95 3d f9 6a 8e 3e 81 0b 1d be
       -0.0051078643 0.07306958 0.2781599 -0.1533642
000100 69 2c 72 3d 4d a3 a3 3e 97 5b ac bd 9a 89 d2 be
       0.059124384 0.31960526 -0.08415907 -0.41120607
000110 c0 de 34 3e f1 d3 19 be 6a 6f 23 bd 6a 57 34 be
       0.17663097 -0.15022255 -0.039901175 -0.17611471
000120 ef 1a c4 3c bc 0e 39 3d 00 43 97 bd 7a 65 16 bd
       0.023938624 0.045180067 -0.07385826 -0.03671787
000130 ec 41 4a 3e b6 32 84 3d 2e 70 7f 3e c7 9e a9 bd
       0.1975171 0.06454985 0.24945137 -0.082822375
000140 b5 04 d2 3e bd 2a d3 be 33 21 8f 3e 59 b9 1a bd
       0.41019216 -0.41243544 0.27955016 -0.037774418
000150 c9 3a 8e 3e f7 4e 5b 3c dc 94 47 3e 4b 1d 1b be
       0.27779225 0.013385526 0.19490379 -0.15147893
000160 2e bd 56 3e 76 21 c4 bd d0 7d 0f be 77 90 37 3e
       0.20970604 -0.09576695 -0.14012837 0.17926203
000170 3a cc 18 be a4 73 f2 3d 85 eb 93 3e a1 21 19 be
       -0.14921656 0.11838463 0.28890625 -0.14954235
000180 61 74 7d be e3 7f b1 be 3f 44 ad be 74 a4 5e 3e
       -0.24751426 -0.34667882 -0.3384113 0.21742421
000190 fe 93 e1 bd 63 2e 46 3e 30 d3 32 3e 1b fd c3 bd
       -0.110145554 0.19353633 0.17463374 -0.095697604
0001a0 af c6 a5 bd f2 ec 9b be 90 d4 00 3e 5f f8 73 be
       -0.080945365 -0.30454212 0.12581086 -0.23825215
0001b0 2e 5a a8 be 35 3f a1 3e 8d 6c 88 be a0 3a 1b be
       -0.32881302 0.31493536 -0.26645318 -0.15159082
0001c0 6c 05 71 be 2a ea df 3d e5 92 37 be 95 99 2e be
       -0.23537225 0.10933335 -0.1792713 -0.17050774
0001d0 51 24 fe bd 2b fa 1f be 76 8b 2b bd fa e7 64 be
       -0.124092706 -0.15622775 -0.041881047 -0.22354117
0001e0 a7 b0 75 bc 91 25 8c 3c 87 de 0a 3e 53 70 36 3c
       -0.0149957305 0.017107757 0.1356145 0.011135179
0001f0 bc a2 3f 3d 02 96 e6 be bc 97 8e be 65 d9 63 3a
       0.046786055 -0.45036322 -0.2785014 0.0008691757

input_layer.bias f4 [64]
000000 e4 79 09 bd c4 b0 86 bd 9e 0e a2 bd 09 7e 4c 3d
       -0.03356351 -0.06576684 -0.07912944 0.049924884
000010 8a c9 71 3d f6 b1 38 3a 56 bf d9 3d 7d a4 53 bd
       0.059030093 0.0007045561 0.106321976 -0.05167054
000020 76 d6 0a bb 5e 51 55 3d 9c a2 7c 3d b9 42 25 3c
       -0.0021184958 0.05207955 0.061678514 0.010086709
000030 65 b3 33 3d a9 5f 2a bd 03 cf 88 3d ed 51 89 bd
       0.043872256 -0.041595135 0.06680109 -0.06705079
000040 da c3 29 3c c8 b1 73 bc 9a 12 a4 bb 49 9a c8 3d
       0.010361636 -0.014873929 -0.0050071003 0.097950526
000050 73 81 b1 3b 52 ce 5f 3d 5c 94 8c 3d 1b 57 8c bc
       0.005417043 0.05464012 0.06864235 -0.017131379
000060 77 68 95 3a 55 b2 e7 3d a2 2d 6c bc e0 fa 01 3d
       0.0011398931 0.11313311 -0.014415177 0.031733394
000070 83 db 2e bc 07 4a ea 3c c6 e8 a1 3b 53 a0 3c bd
       -0.010672453 0.028599752 0.004941079 -0.046051335
000080 33 93 6a 3d ac 0d a7 3a bd 32 5f 3d 4c 34 c6 bc
       0.057269286 0.0012745163 0.054491747 -0.024194859
000090 e0 7c 51 3c 95 9f e8 bc 29 e7 cc bc 32 24 fc bb
       0.01278612 -0.028396407 -0.02501257 -0.0076947445
0000a0 70 8e dc bc 4c 37 41 3d a0 31 c2 bd 47 09 4d 3a
       -0.026923388 0.047171876 -0.094821215 0.0007821512
0000b0 d4 47 c0 bc 24 be bc 3c f8 a8 a4 3c 35 d6 f6 3c
       -0.02347175 0.023039885 0.020100102 0.030131439
0000c0 82 c0 cb bd 35 76 91 b9 ca 4f 8f bd 0d 80 0a bd
       -0.09948827 -0.00027744626 -0.069976404 -0.033813525
0000d0 f4 9f 2a bc 1d 46 0c 3d f1 d3 d7 3d c4 9d 05 3b
       -0.010414112 0.034246553 0.105384715 0.0020388225
0000e0 df 6d 77 bb d0 65 23 bd 45 96 ea bc 28 ce 2a 3d
       -0.0037754697 -0.039892018 -0.028636107 0.041700512
0000f0 2b cf 51 3d 06 e8 28 3d b4 89 1e bd a6 9d e3 bc
       0.05122296 0.0412369 -0.038705543 -0.027785134

hidden.0.weight f4 [64, 64]
000000 58 97 4f 3d 2c f3 93 bd d5 62 4c 3e c1 13 3c be
       0.050681442 -0.07224116 0.19959576 -0.1836691
000010 e0 40 ab be d6 7f ac bc 2c ea 12 be b3 23 0f 3e
       -0.33447933 -0.02105705 -0.14347142 0.13978462
000020 c1 fb a2 3d c1 3b 6b bd 0a 1e bb bd 52 f6 ad bd
       0.079581745 -0.057430033 -0.09136589 -0.084942475
000030 74 05 ef bd 7b 0b 0c be 37 3f 6b 3d 9c 0a 80 3d
       -0.11670962 -0.13676254 0.057433333 0.062520236
000040 d1 62 56 bd d9 09 c3 3d de 58 e3 bd ac 0d 4b 3d
       -0.052340332 0.09523363 -0.111009344 0.049573585
000050 39 be 87 3c 10 2b 00 3d bc fa 36 bd 29 fd c7 3d
       0.016570197 0.031291068 -0.044672713 0.09765083
000060 61 c2 be bd 69 dd a1 3d f6 ca 5f 3a 2a a1 2f bd
       -0.093144186 0.07903559 0.00085370184 -0.042878307
000070 8d 78 99 3d 9f 90 ed bd 04 1d 44 be 55 63 fd bd
       0.07493696 -0.1159985 -0.19151694 -0.12372462
000080 e2 78 fe 3b 7a 72 53 3d ba e1 45 be 96 a5 80 3d
       0.007765875 0.051622845 -0.19324389 0.06281583
000090 8b 15 f5 bd 93 e4 5d bd 14 b1 43 3e af 91 ac 3e
       -0.119669996 -0.054173063 0.19110519 0.33704898
0000a0 9f d6 02 3e 6b fc dd 3d 60 8a e0 3d bb 86 f3 bd
       0.12777184 0.108391605 0.10963893 -0.11890932
0000b0 f0 67 d7 bc 61 5e 16 3d f4 a8 0f be 4c a7 70 3e
       -0.026294678 0.0367111 -0.14029294 0.23501319
0000c0 1e 14 d1 bc 99 f1 5b 3d 38 67 9e bd 4a 1a 4d 3e
       -0.025522288 0.053697202 -0.07734531 0.2002956
0000d0 c2 fb 3f 3e 85 d6 f6 bd 0e 67 70 be 5b 4f ff 3d
       0.18748382 -0.12052635 -0.23476812 0.12466308
0000e0 be ec 13 3c ca f9 91 3d b8 31 37 3e 79 14 6d be
       0.009028612 0.071277216 0.1789006 -0.23152341
0000f0 a5 9b f3 bd 23 89 62 3d 82 3c 3f bc 57 fb eb bb
       -0.11894921 0.055306565 -0.011672141 -0.007201593
000100 9d 9c 6d 3e 16 46 99 3d bb 82 02 bd d6 0a 2d be
       0.23204274 0.07484071 -0.031862956 -0.16898665
000110 e8 82 42 3e ec c0 6b be d5 d5 10 3c 24 e3 ea bc
       0.1899525 -0.23022813 0.008840044 -0.028672762
000120 d0 f0 89 bd 53 39 00 be 4a d1 47 3d 20 44 ca 3d
       -0.067353845 -0.12521867 0.048783578 0.09876275
000130 31 d0 11 bc d0 03 11 be 5d 51 05 be a7 74 11 be
       -0.008899734 -0.1416161 -0.13019319 -0.14204656
000140 29 52 63 3e ed ce 66 3d 60 68 49 3e 30 d8 14 3d
       0.2219931 0.056349684 0.19668722 0.036338985
000150 9e 77 b7 bd 91 17 63 be ac b4 28 3e 7c 71 13 bd
       -0.08958362 -0.22176959 0.16475171 -0.0359969
000160 17 91 cd 3d ff 51 59 bc 7a 47 7b 3d a4 c5 0a bc
       0.10037439 -0.013264178 0.061347462 -0.008469973
000170 77 12 0e 3e 90 5c a0 3c 3e 94 37 3e eb 15 74 bd
       0.13874231 0.019575387 0.17927644 -0.059591215
000180 2d ce d1 3d e4 18 af 3c be 5f 47 bd 8b df 98 bd
       0.10244403 0.021374173 -0.04867529 -0.074645124
000190 91 63 74 3e 42 5b 13 3d fd f9 4c bd f0 02 f9 3c
       0.23866107 0.035975702 -0.050043095 0.030396909
0001a0 f5 d1 1f be 6a 7c 47 be fc d9 62 be f0 32 23 be
       -0.15607436 -0.19481054 -0.22153467 -0.159374
0001b0 10 10 e5 bd c8 1b 58 3e 0f 3f c4 bd 73 ea dc bd
       -0.11184704 0.21104348 -0.0958234 -0.10786905
0001c0 b9 a8 16 be ca 97 ed 3d 20 a5 48 bd 28 ed ce bd
       -0.147128 0.11601217 -0.0489856 -0.10103828
0001d0 20 6d d7 bc b7 f7 28 3d bc 13 14 3e 65 ac 63 3d
       -0.026297152 0.041251864 0.14460653 0.05558433
0001e0 db 18 4a bb 7a 1b 5c 3e f8 47 5c 3e 60 26 70 3d
       -0.003083757 0.21494856 0.21511829 0.058630347
0001f0 35 9f 01 be ef 8b 2e bd ad 7c c9 bd 6c 76 a6 3b
       -0.12658389 -0.04261392 -0.09838233 0.005080035
000200 e7 f3 fc 3d aa d8 31 bc d4 8b a0 3d 65 21 8c 3e
       0.12351208 -0.010854879 0.0783917 0.27369228
000210 0e f9 12 3e 8c 58 31 be c8 b9 fe bc e8 74 92 bd
       0.1435282 -0.17318934 -0.031094447 -0.07151204
000220 11 8a ed 3d 8a 9a 07 bb 1a 8f 8f bd ec e7 7f 3e
       0.115986 -0.0020691478 -0.07009716 0.24990815
000230 a0 82 48 bd 52 7b 0d 3d ea ca 53 be e7 b1 45 be
       -0.0489527 0.034541436 -0.20682874 -0.19306146
000240 f9 90 1e 3d 0b 0d ab bd fa da ff 3c bb c5 c1 bd
       0.038712475 -0.08352097 0.031232346 -0.09461542
000250 ce 63 00 3e 1c 27 12 3d e7 e3 1a be f1 fc 99 bd
       0.12538072 0.03568183 -0.15126 -0.07518948
000260 6a 4c 01 be 6f 5d 3e 3e a7 62 67 3e 7c 2b 44 bc
       -0.12626806 0.1859033 0.22596227 -0.011973258
000270 0c 17 ac bd ee 15 f5 3d 55 94 85 bd 77 fb 59 bd
       -0.08402833 0.119670734 -0.06522433 -0.05321833
000280 c6 91 80 3d cf 4a 84 be db d3 cb 3b 13 e4 9c bd
       0.06277804 -0.25838324 0.0062203235 -0.07660689
000290 c7 f5 8a 3d 27 bd 7d 3b 91 7b 3a 3d 0e 90 13 3d
       0.067851596 0.003871748 0.045528 0.036026053
0002a0 87 ec 9f bc 20 68 15 be 7f e6 d6 bc 4a 3a 11 bd
       -0.019521965 -0.14590502 -0.026232956 -0.03545598
0002b0 d4 46 38 39 00 f1 12 3e 92 70 26 3d 80 43 7e 3d
       0.00017573993 0.14349747 0.0406347 0.06207609
0002c0 22 e6 08 be 1d 12 18 be 98 40 cf 3c b9 98 4e bd
       -0.13369039 -0.1485066 0.025299355 -0.050438616
0002d0 e9 da 41 3e 66 de 49 3e 43 44 a2 bd ce b6 0f bd
       0.18931164 0.19713745 -0.07923176 -0.035086446
0002e0 fa f3 1b be 1c eb 29 bc 95 87 5f bd f9 14 ec 3c
       -0.15229788 -0.010370996 -0.05457266 0.028818594
0002f0 fd 24 9b 3c fe 8f 35 be 05 4f 52 3d 31 8a 96 bd
       0.018938536 -0.1773071 0.05134489 -0.07350577
000300 63 4e 80 3d 01 f1 92 3d a0 2b e0 3d eb 03 4b be
       0.06264951 0.07174874 0.10945821 -0.19825713
000310 94 48 10 be 16 56 9e 3d ad c2 07 bd 4d 75 8c bd
       -0.14090186 0.07731263 -0.03314464 -0.06858311
000320 6e 8e 86 bd 19 da b7 bc 8a 8b 55 3e 51 a5 dc 3c
       -0.06570135 -0.022442864 0.20854011 0.026934298
000330 73 79 94 3d 3a b7 90 3b da be f9 bd 64 a1 e8 3d
       0.07249727 0.0044163736 -0.12194605 0.11358908
000340 3f 4e 80 3e 33 f2 4e 3e f5 70 fc bd 63 fa 2f 3d
       0.25059697 0.20209579 -0.12326232 0.042963397
000350 ca 1a 57 3d 12 54 1f bd 3f 91 6e bd ab 3d 73 3e
       0.052515782 -0.038898535 -0.058243986 0.23753993
000360 1e 4a af bd c4 fa 4e be a9 56 03 3e 1e 84 9d 3c
       -0.085590586 -0.20212847 0.12826027 0.019228037
000370 a5 67 be bd 73 a8 a0 3e 08 cc ef bd 30 cc 4d 3e
       -0.092971124 0.31378517 -0.11708838 0.20097423
000380 c5 08 12 be 44 bd 8d 3d 29 45 ef 3c 84 d0 13 bc
       -0.14261158 0.06920865 0.029207783 -0.009021882
000390 aa 40 a2 be 8f ff e7 3d e2 62 99 3d 32 d3 33 bd
       -0.3168996 0.11328041 0.074895635 -0.043902583
0003a0 e9 2e d7 bd 68 69 3b 3d 1e ff c3 bc c0 9c d7 3d
       -0.10506994 0.04575482 -0.02392536 0.105279446
0003b0 93 54 7a bd 7e 47 5d be 3e 09 33 3c c1 3e f5 3d
       -0.061115813 -0.21609303 0.0109274965 0.1197486
0003c0 c2 af 5f bd 8c 07 ed bd 4c 62 35 bd 7b db 07 3d
       -0.054610975 -0.11573705 -0.044283196 0.033168297
0003d0 b7 5c 51 3e a7 d5 dd 3d 5b 75 07 be 92 09 d5 3d
       0.20445524 0.108317666 -0.13228361 0.10402216
0003e0 61 a9 fc bd ce 29 d9 bd 30 c5 f5 bd 5d 37 91 3d
       -0.12336994 -0.10603677 -0.12000501 0.07090638
0003f0 89 de ad 3e 35 4c 97 bd d1 b3 21 be 64 6b da bc
       0.33958843 -0.07387582 -0.15791251 -0.026662536

hidden.0.bias f4 [64]
000000 74 69 b5 bd 98 a8 5e 3c c2 3c 5c 3d de 57 ca bc
       -0.08858004 0.013590001 0.05376888 -0.024700101
000010 13 7e 91 ba ef 36 2e bd 70 12 df 3c 9c e4 d0 bc
       -0.0011100195 -0.042532858 0.027230471 -0.025499634
000020 1a da 3c bc 1c 0f a8 bc d5 32 e6 39 8d e1 32 bd
       -0.011526609 -0.020515017 0.0004390689 -0.043672133
000030 4d 56 07 bd c8 b9 4e 3c a9 46 e4 ba 25 fd ff bc
       -0.033041287 0.012617536 -0.0017416078 -0.031248638
000040 ea b3 d5 bb c8 3a 91 3c fe 09 67 bc 1f e2 ad bb
       -0.0065216916 0.017728224 -0.014101503 -0.0053064968
000050 1f fd ac 3d 83 ed 4b 3b 62 c4 5f 3d 53 be fe bc
       0.084467165 0.003111691 0.054630645 -0.031096613
000060 66 68 08 3d 34 63 4b 3d 96 57 3e bd 19 1e a4 3c
       0.033302687 0.049655154 -0.046470247 0.020033883
000070 b6 59 3a 3d f1 16 ba bc 13 3d fe 3c fb 0a 4f bd
       0.04549571 -0.022716017 0.031034982 -0.05054758
000080 b8 4c 83 bc bb dd a8 bc 91 cf 09 3d 01 13 06 bd
       -0.016027793 -0.020613542 0.033645216 -0.032732967
000090 11 ec 22 3d 7b ea e7 bd 5b 44 e0 ba 65 e0 23 3c
       0.03977591 -0.113240205 -0.0017110215 0.01000223
0000a0 4a 9a 14 bd 20 bb 14 3d dc f1 25 bd 05 2d 04 3c
       -0.036279954 0.03631127 -0.04051386 0.008067374
0000b0 8a 7c 16 3d 6d 5b 50 bd 81 b3 65 3d d9 f8 ac 3d
       0.036739863 -0.05086844 0.05607939 0.084459014
0000c0 d4 be aa bc 32 ac ff 3b 0c 8f 05 3d 2d e9 b8 bd
       -0.020842947 0.0078025097 0.032607123 -0.0902885
0000d0 38 bf 0f 3c c6 e3 20 bd b1 80 4f 3d e1 b2 74 bc
       0.008773617 -0.03927972 0.05065984 -0.014935226
0000e0 40 b2 33 bd dc f3 97 3d e8 06 e5 bc 1c 12 ba 3c
       -0.043871164 0.07419559 -0.027957395 0.022713713
0000f0 04 35 2d bc be 31 f7 bb e2 cb cc bc fe 2f 4b 3c
       -0.010571722 -0.0075437715 -0.024999563 0.012401579

hidden.1.weight f4 [64, 64]
000000 52 c2 a3 3d ea d1 e1 3d 2b 90 3f bd fd 5d f5 3d
       0.07996048 0.11026366 -0.04676835 0.119808175
000010 95 2f 38 bd bd cd 21 3e 7b e6 c1 bc 8e 43 ba 3d
       -0.044967253 0.15801139 -0.023669472 0.09094916
000020 71 cd 94 3e 66 2b ec bd 76 c1 fc 3b bf 31 16 3d
       0.2906299 -0.11531715 0.007713492 0.036668535
000030 d1 e8 7b 3e b0 ec 13 be 0b 29 65 3b 57 b4 17 3e
       0.24600531 -0.14445758 0.003496709 0.14814888
000040 ee 5b 49 be a9 b6 16 be 20 11 14 3d 52 41 04 3e
       -0.19663975 -0.14718117 0.036149144 0.12915543
000050 d6 28 af be f9 1d 79 3d 31 f1 93 3e fe d3 e6 3d
       -0.34210843 0.0608196 0.28894952 0.11270903
000060 e1 b0 00 be 16 05 ea bd 4f 6d 8e 3d 9f ff a1 3d
       -0.12567474 -0.11426751 0.06954443 0.07910084
000070 09 8b e0 bd ba cb 75 3d 9e e7 d5 3d 18 be 68 3e
       -0.10964019 0.060008742 0.10444568 0.22728765
000080 21 e1 04 be 6b 20 53 bd 3e d8 e0 bd b8 b7 3c be
       -0.12976505 -0.051544588 -0.10978745 -0.18429458
000090 ec 80 1e 3e b0 87 d5 bd b3 14 67 be de 2c e7 bd
       0.15478867 -0.10426271 -0.2256649 -0.112878546
0000a0 7c c7 f5 3d dc da 79 3e 1c fc 29 be da 34 a0 bb
       0.12000939 0.24399894 -0.16600078 -0.004889113
0000b0 8b 25 26 be bf 0d 02 bd 3c e4 14 bd 23 1d 61 3c
       -0.16225259 -0.03175139 -0.036350474 0.013739857
0000c0 3d 26 69 3d 0e ea cc 3d b0 22 8b be 0e 63 73 3e
       0.056921232 0.1000558 -0.27174902 0.23768255
0000d0 01 ea bc ba ca 23 35 3e 28 84 04 3d 4f b9 5c bd
       -0.0014413 0.17689434 0.032352597 -0.05388766
0000e0 80 0c 12 3d 24 82 b0 39 18 d0 c4 bc cd fa 6a 3d
       0.035656452 0.00033666298 -0.024025008 0.05736809
0000f0 3a 53 23 3d d9 46 28 bc f5 20 82 3d 54 50 1c be
       0.039874293 -0.010270798 0.06353942 -0.15265018
000100 d4 3a 04 3e 17 f3 3d 3a c0 d0 b9 3c 33 02 26 be
       0.12913066 0.0007246001 0.022682548 -0.16211776
000110 08 4c 95 3d 9b 72 36 3c 2a 20 7c bd 08 15 f5 3d
       0.072898924 0.0111357225 -0.06155411 0.11966902
000120 43 84 ad bd 6a 5d 44 be bb f2 96 3c d1 19 b2 3d
       -0.084724925 -0.1917626 0.01842629 0.0869633
000130 6a b0 1f bd a8 24 47 3e b5 8f 84 bc 8a 58 03 3e
       -0.0389866 0.19447577 -0.016181806 0.12826744
000140 8d be 97 3d 17 39 13 be f2 b9 ba bd 44 09 5e 3c
       0.074093916 -0.14377247 -0.091174975 0.013552014
000150 33 a2 1d be a1 27 4f be 2c cb e1 bb 36 3c 7d 3e
       -0.15393905 -0.20229961 -0.006890675 0.2473
000160 38 78 fe bd 55 a5 7d 3d 38 26 13 bd 60 57 b6 3d
       -0.12425274 0.06192525 -0.03592512 0.08903384
000170 a4 81 f0 bd 8f f6 94 3c de 74 5d bd cd 45 08 3c
       -0.11743477 0.018183975 -0.05406653 0.008317423
000180 65 bb 31 3e 7c 2a 33 3e 05 ca 4f 3e 26 1f 46 bd
       0.17356642 0.17496675 0.20291908 -0.04836955
000190 8b 5d cf bd 9f 2f 16 3e 73 36 d5 bb 45 5b a2 bc
       -0.10125264 0.14666604 -0.006506735 -0.019818911
0001a0 ac 8a 73 3c bc e8 53 3d 05 7e 62 bd dd 78 3a 3e
       0.014864605 0.051735625 -0.055295963 0.18210168
0001b0 b2 31 1d bc fb b3 bc bc 83 d5 81 3e f4 97 1d 3e
       -0.009594368 -0.02303504 0.2535821 0.15389997
0001c0 48 be d2 bd fe 72 2a 3e 84 8e ec 3d 2e bd c6 3b
       -0.102901995 0.16645429 0.1155062 0.0060650324
0001d0 c3 5e 25 bc fd 54 29 3d ec f4 5f bc f4 8b 6f bc
       -0.010093394 0.041340817 -0.013669234 -0.01462077
0001e0 94 da 71 3d f7 9c 77 be b5 bd f3 3d 77 e5 15 3d
       0.059046343 -0.24180971 0.11901418 0.036595788
0001f0 3d ae 83 3d 32 af 7d bd 4e e9 d9 bd f4 30 64 be
       0.06429718 -0.061934657 -0.106402025 -0.22284299
000200 53 b2 8c bc d8 41 e9 bd 87 86 2e be fc ff 27 3e
       -0.017174875 -0.11389512 -0.17043506 0.16406244
000210 18 d1 a9 bd f4 c7 88 3b b8 b2 84 3d 1f ef 93 bd
       -0.082918346 0.004174227 0.064794004 -0.07223343
000220 11 13 c8 3d 71 1c 6c 3e 7d 56 61 bd 7c a2 42 bd
       0.09769262 0.23057725 -0.055014122 -0.04751824
000230 34 b4 c1 bb 1d ad df bc b3 37 54 bd 67 d0 13 be
       -0.0059113745 -0.027304227 -0.05181093 -0.14434968
000240 9f e8 4e bc 7f 3c fb bc 65 66 98 3c 22 d2 d8 bc
       -0.012628703 -0.030668495 0.018603513 -0.026467387
000250 c1 21 c6 bd f4 e7 8a 3b 23 c5 a1 3c 3e 49 15 3d
       -0.09674407 0.0042390767 0.019747322 0.036446802
000260 2a 25 f7 3a f4 f4 2c bd bb 2f 0c bd 1e d8 d3 3d
       0.001885568 -0.042225793 -0.034225207 0.103439555
000270 47 3f f8 bc 17 62 20 be db 43 ea bd 1a 8d 0b 3d
       -0.03030361 -0.15662418 -0.11438724 0.03407011
000280 6c cc 51 3e b0 fc ea 3d e4 c3 71 bd 29 a6 fa bd
       0.20488137 0.114739776 -0.059024706 -0.12238724
000290 6c f6 13 39 68 27 f3 bd f0 0a 0f 3e 32 a8 29 3e
       0.00014110812 -0.118727505 0.13969016 0.16568068
0002a0 7d 61 6f bd 90 84 cd bd 82 fe 4c bd 6a 7d 51 3c
       -0.05844258 -0.1003505 -0.050047405 0.012786249
0002b0 ff 43 1c 3e 1d a9 ce 3d 37 a7 9b 3d aa a4 2c be
       0.15260313 0.100908495 0.07600253 -0.1685969
0002c0 03 db a3 3d a1 cd c5 3d 76 32 72 3e 77 e0 79 3d
       0.080007575 0.09658361 0.23652062 0.061005082
0002d0 90 f3 25 be 1a 0a c9 be a4 01 88 3d e1 f5 bc bd
       -0.16206193 -0.3926552 0.06640938 -0.09226585
0002e0 4a 35 fd bd 3f 69 98 bd e0 72 d2 bd ed bc 95 bd
       -0.1236368 -0.07441949 -0.10275817 -0.07311425
0002f0 6a 91 c2 3d 3d 35 10 bc 4f 5d 4e be e5 b6 bb bd
       0.09500392 -0.0088017555 -0.20152782 -0.09165744
000300 c5 ee fe bd 74 31 92 bc 40 d9 9a 3e 54 2f 1a bc
       -0.124478854 -0.017845847 0.30243874 -0.009410698
000310 b0 dc a7 bd 8b 6c aa 3e 19 5e 99 be 5f 5c 32 3d
       -0.0819639 0.33285937 -0.29954603 0.043545123
000320 25 d8 5b 3e 96 19 e8 bd e1 2a 40 be 3f 13 04 3e
       0.21469171 -0.11333005 -0.18766357 0.12897967
000330 23 0b 72 3e 48 33 27 3d b4 47 1e be d0 56 45 bd
       0.23637061 0.04082039 -0.1545704 -0.048178494
000340 29 e1 a2 bd c1 1a b3 3d 5b 63 81 3e 4a e6 c3 3d
       -0.07953102 0.08745337 0.25271115 0.095654085
000350 90 b3 a3 3d 99 80 00 bd 3e a3 c1 bd f2 b1 2a be
       0.07993233 -0.03137264 -0.09454964 -0.16669443
000360 10 ac 07 3e d1 eb 99 3d b1 99 0e bc 71 51 4c 3e
       0.1324923 0.075156815 -0.008703635 0.19952942
000370 2c c6 06 3e 48 e5 1a be 7c 98 25 3e a0 43 bf 3c
       0.13161534 -0.15126526 0.1617145 0.023347676
000380 d2 20 d6 3c ec dd 3b bd 92 b5 38 3e 34 fb 3d be
       0.026138697 -0.045865938 0.18038014 -0.18552858
000390 07 74 d0 3b 93 ed f5 bd 44 59 39 bb 16 48 e3 bd
       0.006361488 -0.12008204 -0.0028281966 -0.11097734
0003a0 04 5b 17 bd d2 7e 27 3d 94 98 39 be 93 f1 b8 3d
       -0.036952034 0.04089243 -0.1812461 0.090304516
0003b0 ec 8a 51 3d ff 0a a1 3d a7 4f 99 bd a0 58 b7 3d
       0.051157877 0.078634255 -0.074858956 0.08952451
0003c0 e8 e5 37 3e 33 e9 8f 3e c0 97 46 bd cb 0a 50 be
       0.17958796 0.28107604 -0.048484564 -0.20316617
0003d0 f1 c8 1c be af c7 8d bd 24 a0 b9 be dc ba 24 3d
       -0.15311028 -0.06922852 -0.3625499 0.040217265
0003e0 8c 31 32 3e fb b6 d9 3b c6 1e 57 3e 05 fd 5d be
       0.17401713 0.0066441274 0.21007833 -0.2167855
0003f0 f1 ba 8d be 53 66 f7 bd 6f 15 56 bd 69 05 11 3e
       -0.27681687 -0.12080064 -0.052266534 0.1416222

hidden.1.bias f4 [64]
000000 52 9b 7e bd 79 ef 3f bc cb bb 57 3c 4d 48 00 3c
       -0.062159844 -0.01171481 0.013167332 0.007829738
000010 1c 18 88 3c 3b 1d 09 3d da 35 21 3d 6e c8 8e bc
       0.016613059 0.033475142 0.039357997 -0.017429557
000020 43 98 d8 3b 7d 15 86 bc ef 8a 90 bd 65 db 22 3d
       0.006609948 -0.016367668 -0.070577495 0.039760012
000030 1c 42 83 bd e7 58 9e 3c c8 a8 87 bd fb 27 0f 3c
       -0.06409094 0.019329501 -0.06623989 0.008737559
000040 ca 4e c5 bc ee 4e 27 bd bd 13 ac 3d 2c 6b c9 3b
       -0.024085421 -0.040846758 0.08402202 0.006146809
000050 d5 97 50 3c 69 9e c5 3c 50 69 b9 bc a2 41 40 bc
       0.012731512 0.024123387 -0.022633225 -0.011734398
000060 09 1d 3c bc 83 18 17 bd 5b 8a b3 3c 69 78 04 3c
       -0.011481532 -0.03688861 0.021916559 0.008085349
000070 e8 e2 10 3d d7 21 aa bb 5c 8e b2 3c ae 3e 3c 3c
       0.035372645 -0.0051920223 0.021796398 0.011489553
000080 02 76 95 3c fc 96 a8 bc 9a 4c dc bc 4f fa 7a ba
       0.018244747 -0.020579807 -0.026891995 -0.0009574042
000090 57 45 b5 3c f4 46 32 3c 6b 2e 98 3d 95 01 97 bc
       0.02212779 0.010881174 0.074307285 -0.018433372
0000a0 76 67 11 bd e9 f6 f1 3b 76 db de bc e8 3a 5e b9
       -0.03549906 0.0073841703 -0.027204257 -0.00021193514
0000b0 c3 38 1e 3b 33 d5 1b 3c 00 17 2f bd 2f 92 57 3c
       0.002414272 0.00951128 -0.042746544 0.0131574115
0000c0 dc cc 1f bd e2 bc 07 bd 41 b5 3b 3c 86 6e 62 ba
       -0.03901373 -0.033139117 0.0114567885 -0.0008637685
0000d0 29 33 ac 3c 3f 42 ff 3b 24 4d 8e bc 90 78 10 3d
       0.021020489 0.0077898796 -0.017370768 0.035271227
0000e0 ad 68 ef 3b 87 5d 7a 3c 81 09 8e bc b0 84 a0 bd
       0.0073061795 0.015281088 -0.017338516 -0.07837808
0000f0 d0 d1 91 3c ef 3d 82 3b be 72 2d 3c d3 f2 c3 bc
       0.017800242 0.003974668 0.010586439 -0.023919499

hidden.2.weight f4 [64, 64]
000000 00 20 4e 3c b5 bb 11 bd 9b 1f 98 be 1b b9 51 bd
       0.012580872 -0.035579402 -0.29711613 -0.05120192
000010 09 17 c7 3d 3c d2 45 be 01 31 3f be 15 2e 80 be
       0.097211905 -0.1931848 -0.18671037 -0.25035158
000020 ef 97 4b bd f3 5c 34 3d f6 77 4e 3e 8f 10 a4 3d
       -0.049705442 0.044033956 0.20162949 0.08010971
000030 49 fd 25 be 0a 51 38 be 4f 3c 3b bc a4 ef 0f be
       -0.16209902 -0.17999664 -0.011427953 -0.1405626
000040 b4 b1 dd 3d 70 4e 83 be 27 da 90 3e 35 cf ff bd
       0.1082491 -0.2564578 0.28291437 -0.124906935
000050 5b 29 4f bd 7c 00 f9 bd 40 09 b0 bb bb 3c 6b 3d
       -0.05057655 -0.121582955 -0.0053721964 0.057430964
000060 0d 0a 89 3d 54 1a 60 3e 77 f3 14 be f1 46 7a bc
       0.0669137 0.21885043 -0.14546 -0.015275703
000070 32 ef 38 3d 10 d3 7a 3e dc 54 92 3d f7 ce d9 bd
       0.04514999 0.24494576 0.07145092 -0.106351785
000080 34 a8 8c be 5e 97 11 be c1 b7 0f be 98 53 19 3e
       -0.2747208 -0.14217898 -0.1403494 0.14973295
000090 98 c6 13 3e 8f e6 b3 ba ab 9b c4 3d bf 7a 50 3d
       0.14431226 -0.0013725328 0.09600004 0.05089831
0000a0 f8 18 0f be 37 b2 22 3e c1 18 ab 3d f4 cf 38 3e
       -0.13974369 0.15888296 0.08354331 0.18048078
0000b0 54 3a 82 3d 63 44 83 3d 38 69 04 bc 57 c1 ea bd
       0.063587815 0.06409528 -0.008081727 -0.11462658
0000c0 72 d2 d1 bd 02 f0 12 3d 35 78 1b be c7 f1 25 3e
       -0.102452174 0.03587342 -0.15182574 0.16205512
0000d0 9a 13 a0 3d a9 50 3f be 99 95 92 3d 5b 8d 29 be
       0.07816239 -0.18683113 0.0715744 -0.16557829
0000e0 da 69 f3 bd d1 5b 7a bd cd 45 fc bd 8e 72 30 bd
       -0.11885424 -0.06112272 -0.12318001 -0.043077998
0000f0 cf 2c 19 be 1d 6e 00 3c a7 68 a2 3c 53 a7 e7 3d
       -0.149585 0.007838753 0.019825293 0.113112114
000100 e2 ea 5e be d2 79 87 be fa df c3 3c 93 9c 05 3e
       -0.21769288 -0.2646013 0.023910511 0.1304801
000110 1e d8 47 3d b6 e9 bc bd 68 bb 50 3c 79 f5 c2 3c
       0.04879009 -0.09224264 0.012739994 0.023798691
000120 2d 9f 89 3e 4f fd 64 3e de f8 69 3b df 70 5f be
       0.26879254 0.22362255 0.0035701315 -0.218204
000130 d9 a7 f3 3c be ce ce 3d b1 62 13 be 88 f5 0f be
       0.029743122 0.10098027 -0.14393117 -0.14058506
000140 95 a6 c2 bd fa 6b 0a bc d5 a8 81 3e 46 9e a0 3d
       -0.09504429 -0.008448595 0.2532412 0.07842688
000150 8a bc 1f 3e de f3 21 be a3 08 ea bd 60 d3 2e 3d
       0.15599266 -0.15815684 -0.114274286 0.04268205
000160 40 96 cf bd df dd 87 be f1 df 84 3d 63 58 ab 3d
       -0.1013608 -0.26536462 0.06488026 0.08366468
000170 e9 10 ce bc a3 10 99 3c d9 91 87 3d 71 84 81 3d
       -0.025154548 0.01868469 0.06619615 0.06324089
000180 fb 13 4d 3e 91 02 4d 3e e0 af 6a 3e 5e 36 84 bc
       0.20027153 0.2002051 0.22918653 -0.016139206
000190 66 4e 17 be 03 a2 1a 3e 0e 8f a4 3d ab fb 27 3e
       -0.14776 0.15100865 0.08035098 0.16404597
0001a0 9e ff d1 bd bc c3 9d 3d 34 ff 5a bc af cf 01 3e
       -0.10253833 0.07703349 -0.013366509 0.12676881
0001b0 ae b6 ea 3d 70 27 ee bd 19 34 41 be 11 1a d1 3d
       0.11460625 -0.11628616 -0.1886753 0.1021005
0001c0 b6 a3 bf bb e4 c9 4d bd a4 9f 23 3e cc da 78 3c
       -0.0058483733 -0.050241366 0.15978867 0.015188884
0001d0 26 51 6d 3e 1c 9d be 3a 80 cd 70 3e 40 bc 34 bd
       0.23175487 0.0014542672 0.23515892 -0.04412484
0001e0 07 b2 c8 3d 92 8f 24 3e 2f 6d 77 bb be b1 05 be
       0.09799581 0.16070393 -0.0037754287 -0.13056085
0001f0 54 89 92 3d c3 3e 98 be f1 28 f1 3d df 9e a7 3c
       0.071550995 -0.29735383 0.11775387 0.020461498
000200 44 cb c3 3d c0 0e 1a 3e 1b 1a ab 3d 42 22 b9 3d
       0.09560254 0.15044689 0.083545886 0.09039737
000210 60 25 0e bd 0d 40 ad 3d 55 67 c3 bd fd cc 2f bd
       -0.034703612 0.08459482 -0.095411934 -0.0429201
000220 22 02 9e be f0 4f e9 3d 42 ec 4b 3d b4 13 7f be
       -0.30861002 0.113922 0.04978586 -0.2490986
000230 03 38 9b 3e 19 e2 b8 bd 66 ad 6d bd 0d 19 95 bc
       0.3031617 -0.090275 -0.058026694 -0.018200422
000240 21 52 1c 3e 06 40 75 be d6 e8 7a bb 5e a7 1c be
       0.15265705 -0.23950204 -0.0038285754 -0.1529822
000250 36 d1 15 bd 12 ca a9 bc a3 11 73 bd 44 c5 75 3d
       -0.036576472 -0.020726237 -0.05934299 0.06000258
000260 15 1c 89 bd a1 cd 9e bd 36 13 91 3d 5d 83 7f 3e
       -0.06694809 -0.07754064 0.07083742 0.24952455
000270 8f 59 45 3d e7 43 83 3e c4 aa 7c 3d 93 56 98 3d
       0.048181113 0.25637743 0.061686292 0.07438388
000280 70 c9 e5 3b 09 60 aa 3d f5 75 52 be 58 3c 0a b9
       0.0070125386 0.083190985 -0.2055281 -0.00013183185
000290 3f a3 8f bc 96 c8 fb 3c a9 75 fd bd 92 8f 19 3e
       -0.017533896 0.030735295 -0.123759575 0.14996174
0002a0 55 1c df 3c d4 16 e2 bb 8c b0 97 bb 14 12 af 3c
       0.02723519 -0.006899694 -0.0046292003 0.021370925
0002b0 dd cd 6b bd 30 60 4d be f5 a4 cf 3d b9 27 8e bd
       -0.057569373 -0.20056224 0.10138885 -0.0694117
0002c0 ca c2 0f bd 1c 8f 93 3e 4a 4a 09 bd b0 1c 1b be
       -0.035097875 0.2882012 -0.033518113 -0.15147662
0002d0 cd d7 1b be 22 4e 5d bd cf f7 9c 3c 3b 1b 9a 3e
       -0.1521904 -0.05402959 0.019161133 0.300989
0002e0 fc 01 57 3d 82 79 e6 3d c7 49 05 be c9 3f dc bc
       0.052492127 0.112536445 -0.13016425 -0.026885884
0002f0 76 01 24 be ce 0b b6 bd c1 11 eb bb f6 b9 d7 3d
       -0.16016182 -0.0888897 -0.0071737473 0.10533516
000300 43 37 87 bd 02 17 5d 3e 85 9e 09 be 98 e4 e3 3c
       -0.06602337 0.21590808 -0.13439377 0.027818963
000310 bf 50 0b 3c 1f 27 28 3e 0f f6 99 3c 17 ae 76 3b
       0.008503138 0.16421174 0.018794088 0.0037640387
000320 72 f9 04 bd 3e b6 78 3d 79 7d 9b bd cb 9d d6 3d
       -0.032464452 0.060720675 -0.075922914 0.10479315
000330 22 60 3c be f5 73 36 3d 3c 26 8f 3d 9b 63 80 bd
       -0.18396047 0.04454418 0.069897145 -0.06268998
000340 04 e5 6e 3e a8 bc 41 bd 8c f7 5a 3c 16 c4 7e bb
       0.2332955 -0.047299057 0.013364684 -0.00388742
000350 91 6f f4 bd ad 00 46 3e ae c9 c1 bd 39 a5 6a 3d
       -0.11935342 0.19336195 -0.094622955 0.057286475
000360 cd 40 ef 3d 87 b7 18 bd 37 5f da 3b 53 3d 01 be
       0.11682282 -0.0372844 0.0066641825 -0.1262105
000370 94 56 14 3d 95 18 73 bd 1a db 56 3e 47 d3 0b 3c
       0.03621538 -0.059349615 0.20982018 0.008534259
000380 cb 01 01 be 02 19 85 bd da af c4 3d b8 42 88 bd
       -0.1259834 -0.064989105 0.096038535 -0.066533506
000390 c2 31 2f 3d 22 cb 70 3d 5c 86 ec bc d5 73 09 bd
       0.042772062 0.058787473 -0.028872661 -0.03355773
0003a0 3b 00 93 3d f9 7b 1f 3e 77 03 17 be 44 1f 52 bd
       0.07177778 0.15574636 -0.14747415 -0.05129935
0003b0 1b 45 0f 3e c3 bc 58 bd 28 7a ee 3d fb 91 af bb
       0.13991205 -0.052914392 0.11644393 -0.0053579784
0003c0 68 bd aa 3d 11 b5 6d bd b6 6e 34 be f3 02 d2 bb
       0.083369076 -0.058034007 -0.17620358 -0.006409043
0003d0 43 48 36 3e f8 07 03 3d c8 48 85 3c d1 00 8d 3d
       0.17801003 0.03199002 0.016270056 0.06884921
0003e0 82 1f 54 3e 0a ce 1c bc eb 18 35 3e 90 0b 24 3d
       0.20715144 -0.009570608 0.17685287 0.04005009
0003f0 58 e5 57 be 31 cb f8 bd c7 26 e0 bc 5a ac 99 bc
       -0.21083581 -0.12148131 -0.02736224 -0.018758941

hidden.2.bias f4 [64]
000000 94 c5 e3 3b a8 a3 c9 3c 9e 72 65 3a cf b0 2d bb
       0.0069510434 0.02461417 0.0008752736 -0.0026503091
000010 11 93 3b 3c cb 6d 6c 3a 38 f2 8e 3c 44 d8 20 bc
       0.011448638 0.0009019046 0.017449483 -0.009817187
000020 e2 bb 5a 3d b9 ff 00 3d 0f 4c 53 bd 66 ef 34 3b
       0.053401835 0.031493876 -0.051586207 0.0027608513
000030 0d 9e 57 3c fb 5b 6f 3d 31 68 cf bc bc 31 f8 ba
       0.013160241 0.05843733 -0.025318237 -0.001893572
000040 c0 7b c8 3c b6 5f 77 bc 1a 15 d8 bb e8 d3 18 ba
       0.024473071 -0.015098503 -0.0065943124 -0.00058299163
000050 a8 e8 9b 3c 18 df 4e bb a9 a7 34 3c 3f dc d4 3b
       0.019031838 -0.003156608 0.011026301 0.006495982
000060 cc a6 32 bd a7 92 55 bc 13 fa d1 3a 21 1d 3f 3c
       -0.0436161 -0.013035453 0.0016019962 0.01166466
000070 67 a9 d9 bc 5a 11 54 3c f6 5d f1 bc 31 48 32 3b
       -0.026570035 0.01294359 -0.02946375 0.0027203674
000080 c1 36 1b 3c 10 f1 57 bc 9b ad 07 bb f6 e3 b7 bc
       0.009473504 -0.013180032 -0.0020702842 -0.022447567
000090 26 7f 90 bb 44 77 4f bc b2 19 73 bc 7c 52 75 bc
       -0.0044096885 -0.0126627125 -0.014837669 -0.014973279
0000a0 b4 f9 8b bb 9c ce 30 3c b5 ed eb 3c 2e 7c 52 bc
       -0.0042717103 0.010791447 0.028799871 -0.01284699
0000b0 6c a4 00 bc 26 b9 15 bc a8 9b aa bb 83 58 41 bd
       -0.007851701 -0.009138381 -0.005206544 -0.047203552
0000c0 3b 48 45 3c 21 0d cc 3b b5 bd c2 bb 83 fa 56 3d
       0.012041147 0.006227151 -0.005943025 0.052485
0000d0 fa c6 91 bc 58 90 a4 bc 3e de 5a 3b 5b 0c 07 bc
       -0.017795075 -0.02008836 0.0033396627 -0.008242692
0000e0 89 57 85 3c 20 2d 0b bd f1 d5 e6 ba f7 08 0c 3d
       0.016277092 -0.03397858 -0.0017611367 0.034188237
0000f0 ce 3e 72 bc 12 2e 3f 3a ec 36 0b 3d 1d b2 41 bc
       -0.014785482 0.0007292937 0.033987924 -0.011822251

hidden.3.weight f4 [64, 64]
000000 9f 69 04 3d 02 75 a0 bd 4b 38 d7 3c e4 ca 07 bd
       0.03232729 -0.078348175 0.02627196 -0.033152476
000010 37 17 d5 3d 3b db b0 bd 89 72 0c 3e ae d2 8b bc
       0.104048185 -0.08635565 0.13715567 -0.017068233
000020 da 92 71 be ec 17 9c 3d 5d 37 62 bd 8c 9a 0e bc
       -0.23591176 0.0762175 -0.05522858 -0.008703839
000030 ad b3 27 bd 92 43 e4 3d f5 1c 05 3e ad 60 b6 bd
       -0.040942837 0.111457005 0.12999327 -0.08905158
000040 7a ba 75 3b 06 f5 c2 bc 34 98 d6 bd 36 94 b5 bd
       0.0037495182 -0.023798477 -0.10478249 -0.088661596
000050 e6 07 80 3d d4 fb c1 bb 0a 63 a4 bd 2e a6 7f be
       0.062515065 -0.005919913 -0.08026703 -0.24965736
000060 96 43 5a 3e 5a 2a 30 be e2 17 e0 bd e9 09 e8 bd
       0.21314844 -0.17203656 -0.10942055 -0.11330015
000070 5d 48 36 3e 78 8a 27 be 8d 41 ae bd 47 ac 03 bc
       0.17801042 -0.16361415 -0.085085966 -0.00803668
000080 92 6d e3 bd e5 98 ea bd 68 f9 ad bd 1e c3 a6 bd
       -0.11104883 -0.114549436 -0.08494836 -0.081426844
000090 98 5d 86 be d9 da 5e be 5f cf 17 3e f2 e2 7d bd
       -0.2624328 -0.21763171 0.148252 -0.06198401
0000a0 85 68 e3 ba dd 77 1b 3b c2 b6 8e bc 56 ec 49 3e
       -0.0017349875 0.0023722567 -0.01742113 0.19719061
0000b0 68 0c 13 be 86 87 9e 3e dd a8 57 3e 22 3e 3c bd
       -0.14360201 0.3096277 0.2106051 -0.045957692
0000c0 13 5d df bc e5 3f 0c 3e 2a 04 7e bd 7d 40 2a 3c
       -0.027266061 0.13696249 -0.06201569 0.010391352
0000d0 1c e8 0b 3e 9f 21 88 3d ed 99 50 3d 73 8e 60 be
       0.13662761 0.06647038 0.050928045 -0.2192934
0000e0 3b ff af bd 4c 41 9b 3d 64 99 18 be 58 93 e0 bc
       -0.08593603 0.07580814 -0.14902264 -0.027414009
0000f0 e3 51 4a 3e 2a fa 09 bb 24 72 28 be 1b a0 2b bd
       0.197578 -0.002105365 -0.16449791 -0.041900735
000100 9d e8 5b 3c 6b ff 5a bd e4 ca 01 3d eb 73 07 3e
       0.013422159 -0.05346624 0.031687632 0.13227813
000110 83 7f 03 be 9c 7c 68 3d db bd b7 bc 87 b8 b5 bc
       -0.1284161 0.05675946 -0.022429397 -0.022182716
000120 db e7 cd bd 70 55 2b 3d 7e 91 62 3d 77 81 c9 bd
       -0.100539885 0.041829526 0.055314533 -0.098391466
000130 53 1a 01 3e 62 21 60 be fe 26 0f 3e d0 4a 52 3c
       0.12607698 -0.21887735 0.13979718 0.0128352195
000140 e1 74 8b bd c0 c3 d6 3d 7a 1f 1a be 24 01 20 be
       -0.06809402 0.10486555 -0.1505107 -0.15625435
000150 b8 69 20 3e bd 61 81 be da 05 27 3d 84 9b 4c bc
       0.15665329 -0.2526988 0.040777065 -0.01248825
000160 1b cf c5 3d c8 d4 32 bd bf ec 6f bc e3 a7 96 bd
       0.09658643 -0.043659955 -0.014643847 -0.073562406
000170 0d ea e9 3d 32 7e 01 be f3 cc 65 bb 31 38 5e bd
       0.11421595 -0.12645796 -0.0035064786 -0.054252807
000180 8e 2d 77 bd 7e bc 64 3d 6d 2d 82 bc dc 1a ae bd
       -0.06034618 0.055843823 -0.015890801 -0.08501217
000190 7b 05 43 bb d6 ce a4 be 18 cd 23 bc 6c b6 25 3e
       -0.0029757905 -0.32189053 -0.009997629 0.1618287
0001a0 59 07 28 3d c2 f5 56 3d 25 61 89 bd b6 58 17 3c
       0.041022632 0.052480467 -0.06707982 0.009237459
0001b0 64 58 e7 3d 43 9d 33 bd f3 19 14 be 2f d7 3a 3d
       0.11296156 -0.04385115 -0.14463024 0.04561537
0001c0 9e 57 00 3e 63 55 2d be 39 55 87 be f7 31 66 bd
       0.12533423 -0.16927104 -0.26432207 -0.056199994
0001d0 77 f8 75 3e 19 e8 56 3e 19 56 07 be fd ba 06 3e
       0.24020563 0.20986976 -0.13216437 0.13157268
0001e0 68 0d 4e be 09 16 28 bc 6e b0 e1 3d 1c 47 cd bb
       -0.20122302 -0.01025916 0.110199794 -0.0062645804
0001f0 d1 5a 24 be 0b 27 1f 3d 9f b4 20 bd b2 c6 f0 3d
       -0.16050269 0.038855594 -0.039234754 0.11756648
000200 ab 92 0a 3e 02 5d 8c bd 14 94 e0 3d ca c8 a9 3b
       0.13532512 -0.06853677 0.10965744 0.0051814066
000210 8a b2 e8 3d bf 46 96 bb 16 a6 2f bc 06 d3 88 3e
       0.113621786 -0.0045860703 -0.01072075 0.26723498
000220 73 4c c9 bd bb 1a d2 bd 90 46 1c be 43 c4 ad bd
       -0.09829035 -0.10259005 -0.15261292 -0.084846996
000230 20 5e 32 3e 75 de 6c bd b2 a7 aa 3d 9b 1b e9 3d
       0.17418718 -0.05782934 0.083327666 0.113822185
000240 63 3f 44 3e cd 14 aa 3d ab 8c a0 3d 9d 8c 19 be
       0.19164805 0.08304749 0.0783933 -0.14995046
000250 49 b7 2e be 5e 31 72 bd 74 27 ea 3d cc 35 41 3b
       -0.17062105 -0.05912911 0.11433306 0.0029481528
000260 68 6e e7 3d 11 28 69 3d 83 05 1b 3e b6 02 e6 bd
       0.11300355 0.056922976 0.15138821 -0.11230986
000270 ce cf b1 3d 70 ff a4 bd 50 c9 df 3c 83 84 35 3e
       0.08682214 -0.08056533 0.027317673 0.1772633
000280 12 9b 78 bd 56 e5 96 3d ac 13 79 3d 72 04 95 3d
       -0.06069476 0.07367961 0.060809776 0.072762385
000290 b6 44 8f 3d 1b 6e 17 3e 7b ec 0f bd 30 8d 2a 3e
       0.069955274 0.14788096 -0.035137635 0.16655421
0002a0 0f 44 01 bd 17 2b c5 bd 42 01 4d 3d e9 db db bd
       -0.031559046 -0.09627359 0.050050028 -0.10735304
0002b0 ef db 1e 3d 32 b3 ad bd b6 fa 10 3e 01 b0 e1 bb
       0.038783964 -0.084814444 0.14158139 -0.0068874364
0002c0 75 97 a6 be 48 df 90 3e 0a 4f b0 bd a5 d6 29 be
       -0.32537428 0.2829535 -0.086088255 -0.16585787
0002d0 cd c4 b7 3c 18 80 69 3e 52 1a bb bd 2b f1 76 3d
       0.02243271 0.2280277 -0.091358796 0.06028859
0002e0 20 38 85 be c7 3f b7 3d 63 ec 05 bd 48 ab b8 bd
       -0.26019382 0.089477114 -0.03269614 -0.09017044
0002f0 de 34 84 3e 61 97 f8 bd 94 f6 5c 3e 4a 62 92 bc
       0.25821584 -0.12138248 0.21578437 -0.017869134
000300 43 ba 9c 3b b9 8c c2 bc 7b 2e 5d 3e b7 99 37 bd
       0.0047829463 -0.023748742 0.21599762 -0.04482433
000310 43 ec 0d 3e 45 5e 80 bd bb ca 29 be e4 ff e3 3d
       0.13859658 -0.062679805 -0.16581242 0.11132792
000320 b9 2c 26 3e 31 ea 55 3e 62 bb 8a bd 7f bf ae 3d
       0.16227998 0.20890118 -0.06774022 0.08532619
000330 3d 45 41 be d9 ed c3 3d f9 ef 28 be 24 95 76 3d
       -0.18874069 0.0956685 -0.16497792 0.060200825
000340 6e 5e 5c 3c 61 ac e3 3d 91 4b 93 3d 94 ba ba bd
       0.013450248 0.11116863 0.071921475 -0.09117618
000350 77 ab 01 3e 57 68 c2 3c ce a4 fd 3d b3 8b b2 bd
       0.12663065 0.023731394 0.123849496 -0.08718052
000360 87 74 30 be 3b b5 d4 bd 99 ae 95 bb 34 8c bb bc
       -0.17231952 -0.103861295 -0.004567933 -0.022894002
000370 b1 8f e9 bc 91 48 8d bc b2 56 8a bd 0a b4 fa bd
       -0.0285109 -0.017246516 -0.06754817 -0.12241371
000380 4b b7 2e be 79 29 15 3e be 90 4f 3b 72 8c aa bd
       -0.17062108 0.14566602 0.0031671966 -0.08327569
000390 f1 b2 20 3e 8d 4c e1 bd 7b c3 00 be 21 c1 8b be
       0.1569326 -0.11000929 -0.1257457 -0.27295783
0003a0 ef f3 8d bd 6f 18 5a bd 09 f9 31 3e f3 fa 00 3e
       -0.06931292 -0.053245958 0.17380156 0.1259573
0003b0 1a 4e 40 be d2 a7 9f 3c 1b c1 e4 bc d8 06 0d bd
       -0.18779793 0.019489203 -0.027924111 -0.034430355
0003c0 a7 ff 61 be 41 11 a7 3d da de 93 be 37 c6 c9 3d
       -0.2207018 0.08157588 -0.2888096 0.098522596
0003d0 c0 f3 e8 3d f3 8c b3 3d 2c 57 44 be 44 3f 94 3d
       0.113746166 0.08767118 -0.19173878 0.072386295
0003e0 72 8d 97 3d 89 8d 38 be 69 42 d2 3d 98 fd 04 3e
       0.074000254 -0.18022741 0.10266573 0.12987363
0003f0 e9 c5 fd 3d fa ed 4e bd 8e c3 11 3d 79 cb 08 be
       0.12391264 -0.05051992 0.035586886 -0.13358869

hidden.3.bias f4 [64]
000000 1c 7a 03 3b 76 c7 5f bb 51 b2 60 bb 67 5d 01 3b
       0.0020061797 -0.0034145988 -0.0034285972 0.001973951
000010 a4 3f d9 bb b6 bb a3 3b e1 7f f6 3b 2d bb 22 bb
       -0.006629901 0.004996742 0.0075225686 -0.0024830804
000020 aa c4 a5 3c 10 8b 6b bb 48 6e 97 bc 14 ef dc bb
       0.020235378 -0.0035941042 -0.018485203 -0.0067423675
000030 25 58 22 3d 5d 74 e5 b9 b7 d4 80 3b 5e 70 29 3b
       0.039634842 -0.0004376498 0.0039316076 0.002585433
000040 91 f9 d6 3c 38 4a 7f 3b 54 ca 05 3d 12 fc 19 3c
       0.02624205 0.003895415 0.03266366 0.009398477
000050 a1 dd ba 3b f0 c7 48 bb 74 0b 33 bc 19 fe c8 3a
       0.0057026898 -0.003063675 -0.010928024 0.0015334516
000060 a3 19 1b 3a cf 3c ab bb d7 5a 5e 3b c4 8f 06 3b
       0.0005916601 -0.005225755 0.0033928656 0.0020532468
000070 f0 2a 97 3a 07 cd 29 bc 5f 51 70 3a ed 26 c3 3b
       0.0011533182 -0.010363824 0.00091673987 0.005955568
000080 5d ef 0c bb 23 df 4a 3b 93 00 70 3b b8 6a 8e 3b
       -0.0021504976 0.0030955754 0.0036621436 0.004346218
000090 15 5b 43 bb 81 af 26 bc 8c ea a3 bc 2e f7 c0 3b
       -0.0029808928 -0.010173679 -0.020009302 0.005888841
0000a0 3b f5 10 bc d2 c5 0d bc 8c 89 0d 3c 66 d5 57 bb
       -0.00884753 -0.008653121 0.008638751 -0.0032933592
0000b0 8e 97 a5 bb 18 8a 48 bc bc 99 17 bb 1a 1d a0 3c
       -0.005053467 -0.012239955 -0.0023132404 0.019545127
0000c0 3e 91 13 bc e8 12 72 bb f8 6e bc bb 9e c1 d2 3a
       -0.009006796 -0.0036937539 -0.005750533 0.0016079431
0000d0 68 3e d9 3b af 0c 11 bb 4f b6 76 bb a7 2a b9 b9
       0.006629754 -0.0022132804 -0.0037645285 -0.00035317728
0000e0 c4 a2 ce 3a 07 d3 f8 bb 62 16 74 bb 9e 4b 27 3b
       0.0015765061 -0.007593516 -0.0037244787 0.002552725
0000f0 38 96 ba ba e0 e3 12 bb f6 e9 c1 ba 3c 34 09 bc
       -0.0014235443 -0.0022413656 -0.0014794457 -0.00837427

output.weight f4 [1, 64]
000000 bf db 04 bd 25 47 b6 be 76 30 7d be 63 8a 23 be
       -0.03243613 -0.35601154 -0.24725518 -0.15970759
000010 00 38 c9 bc bd 6e 96 3d 3e 5f 4f 3d 45 02 06 3e
       -0.024562836 0.073453404 0.05062794 0.13086803
000020 4d 88 6b 3d 2f 5c 86 3e 4a 2b 5d be 17 a3 2f be
       0.057503033 0.26242206 -0.21598545 -0.17152058
000030 26 69 70 3e 2b 29 c3 bd 52 4b 93 3e 2e 71 29 bd
       0.23477611 -0.095293365 0.28768402 -0.041367702
000040 de ad 85 be d0 39 16 be 92 5d b8 3d 8d b5 e7 3d
       -0.26109213 -0.14670491 0.09002222 0.11313925
000050 41 21 5c be a8 14 a4 bd 2b 6a 2c bd c4 f8 42 be
       -0.2149706 -0.08011752 -0.042093437 -0.19040209
000060 54 b1 6a be 32 92 1c be 2b ce 48 bd 9c 24 64 3d
       -0.22919208 -0.15290144 -0.049024742 0.055698976
000070 77 a9 f2 3c 00 f1 5b be 42 7a 88 3c ef a0 b6 3c
       0.029621823 -0.21478653 0.01665986 0.022293536
000080 e1 3f 01 be c1 c2 38 3d d3 19 1f 3d 77 be 93 be
       -0.12622024 0.045107607 0.038842987 -0.2885625
000090 49 db 9d bd 1a 7e 40 3d 8e 1c a6 be 72 c7 d5 be
       -0.07707841 0.04699526 -0.3244366 -0.41753727
0000a0 4e 0a 90 be bf 22 a0 3d f6 ff 81 3e 53 12 38 be
       -0.28132862 0.07819127 0.25390595 -0.1797574
0000b0 6f aa 70 be 9d 5e db be 24 b2 61 be 3c d4 8a 3d
       -0.23502515 -0.42845622 -0.22040612 0.06778762
0000c0 26 be 7b be de c1 b3 be eb 55 0e bd 55 94 d0 bd
       -0.24584255 -0.35108846 -0.034749907 -0.10184542
0000d0 57 a6 54 3e 79 d9 bb be a4 9d 8d be 64 73 74 bd
       0.20766579 -0.36689356 -0.27659333 -0.059680358
0000e0 91 85 ab 3d 2e 9c 32 be 46 c4 a0 bd ce 60 95 3e
       0.08375085 -0.1744239 -0.07849936 0.2917542
0000f0 6d c3 d1 bd 8d 3b f7 bd 77 34 1e bd fa 24 0d 3f
       -0.10242353 -0.12071905 -0.038624253 0.55134547

exp_avg f4 [64, 2]
000000 3e 16 96 b9 88 40 8a 38 d2 6e 18 b9 4d 17 09 b9
       -0.000286268 6.592373e-05 -0.00014537133 -0.00013074018
000010 94 7f 13 b9 aa 6a f3 b8 24 be 81 39 d7 df 35 b9
       -0.00014066539 -0.00011607011 0.00024746463 -0.00017344892
000020 fd b6 8a b9 fa 59 85 b8 b0 c9 c6 b9 59 db 5c b8
       -0.00026457748 -6.358694e-05 -0.00037915772 -5.265637e-05
000030 57 2b 2d b8 1a a0 6b b9 d2 d4 3b 37 49 98 7a 38
       -4.1286778e-05 -0.00022470989 1.119562e-05 5.974647e-05
000040 36 cb 05 3a fb 3e f6 b7 e6 b2 5b b9 07 0c b9 b7
       0.0005103828 -2.9354813e-05 -0.00020952112 -2.205932e-05
000050 3b c7 e8 b8 45 e0 f3 37 f2 b4 7d b8 43 02 ee b8
       -0.00011099732 2.9072291e-05 -6.048842e-05 -0.00011349146
000060 10 c3 8f b9 1d ad 01 37 64 e6 2b 3a 58 9e a2 b8
       -0.00027420418 7.729305e-06 0.0006557463 -7.754256e-05
000070 56 b4 b1 b7 20 a2 99 37 2c 2e 51 b9 5e 66 5a 39
       -2.118402e-05 1.8314517e-05 -0.00019948994 0.00020828235
000080 73 25 71 37 67 aa ec 38 c4 52 71 ba 5e 4f 1d 39
       1.4373439e-05 0.00011285097 -0.00092057534 0.00015002253
000090 52 60 68 b9 b7 b5 1a b9 8d 4f 06 b8 32 5d 44 38
       -0.00022161126 -0.00014754279 -3.2022177e-05 4.6816836e-05
0000a0 43 63 4e 3a 93 e4 15 39 d6 bf 2e 3a 45 41 d1 b7
       0.00078730675 0.00014294898 0.0006666159 -2.4945135e-05
0000b0 c8 b7 44 b9 3e b1 9c 37 e8 81 13 39 d8 7d 48 b8
       -0.0001876048 1.8679184e-05 0.00014067406 -4.7800917e-05
0000c0 70 15 80 b9 ee 0d 10 b9 1f 0a 2f b8 d6 2c 4f b8
       -0.00024430035 -0.000137381 -4.1732677e-05 -4.9394403e-05
0000d0 62 7b 21 39 c9 84 1e 39 d5 7b 86 38 a9 4a cb 38
       0.0001540012 0.0001511752 6.4126834e-05 9.693701e-05
0000e0 40 14 42 b9 e8 da dc 34 c9 89 a3 39 94 4e 52 39
       -0.00018508825 4.1137469e-07 0.0003119244 0.00020056433
0000f0 a2 4f ca b9 f6 b9 1c b8 c1 46 98 39 eb c6 19 38
       -0.00038587773 -3.7366488e-05 0.00029044415 3.66633e-05
000100 fe 85 ea b9 de bd 1e 38 71 ec 28 b9 f5 2c 01 39
       -0.0004473179 3.7846963e-05 -0.0001610981 0.00012319146
000110 08 77 5d b8 af 8d 4d b8 96 f5 01 39 37 ff 83 38
       -5.2801362e-05 -4.9007762e-05 0.00012393887 6.294104e-05
000120 2b f9 7c b8 4b 27 e8 b7 9d 0b 0d 3a 84 cc 26 39
       -6.0313538e-05 -2.7674852e-05 0.00053804537 0.00015907182
000130 44 70 ae 39 f0 55 ec b7 1d c9 b5 ba 17 f4 e7 b6
       0.0003327151 -2.817341e-05 -0.001386914 -6.9127523e-06
000140 f1 b6 3f 37 5c 5f ee b8 5e f7 45 39 b8 09 59 37
       1.14270815e-05 -0.000113664864 0.00018879535 1.2936471e-05
000150 58 bc 3a 39 a8 ae 2f 38 f1 81 f8 39 f0 b9 73 38
       0.00017808506 4.1885913e-05 0.0004739906 5.8108883e-05
000160 ea cf d4 38 ee 64 e2 38 ab d5 8c ba ec 3e 61 b8
       0.00010147675 0.000107953194 -0.001074483 -5.370278e-05
000170 49 e4 9e b9 17 a2 68 b8 31 98 07 3a ae a0 01 39
       -0.00030306194 -5.546407e-05 0.00051725196 0.00012362257
000180 dd 49 bc 39 05 d8 38 39 de 18 84 b9 f6 de 02 39
       0.00035913187 0.00017628081 -0.0002519553 0.00012480826
000190 86 3b 65 b9 aa 34 1b b9 88 48 8b 34 0c f8 e1 38
       -0.00021861316 -0.00014801571 2.594354e-07 0.000107750384
0001a0 7f ba 62 ba a7 b3 42 39 8a a4 c3 39 0a 4d 01 39
       -0.0008649006 0.00018568207 0.0003731589 0.00012331098
0001b0 5a 01 ae b9 05 23 da b7 b8 f1 e8 b6 6c 36 c9 38
       -0.00033188873 -2.6003932e-05 -6.9422786e-06 9.594564e-05
0001c0 34 ea 15 39 1d 32 81 37 f9 d5 4a b9 7b b9 b9 38
       0.00014296995 1.5401334e-05 -0.00019343932 8.856036e-05
0001d0 37 93 9c ba ad 7d 55 39 ec 07 06 39 d9 1a 0c 37
       -0.0011945729 0.00020360081 0.00012782187 8.350901e-06
0001e0 df 3d 3b 38 42 fe a8 38 c6 b3 03 3a bd 53 34 b8
       4.4641896e-05 8.0582235e-05 0.0005024042 -4.299333e-05
0001f0 a2 ae 89 38 31 1c 04 b9 31 d3 fe b9 8d bc 9e 37
       6.565197e-05 -0.00012599003 -0.00048604005 1.8922869e-05

exp_avg_sq f4 [64, 2]
000000 87 5e f8 3b 9b ee b8 39 3c 7d a2 3a e5 0a a1 38
       0.007579628 0.0003527299 0.0012396942 7.6791075e-05
000010 cc b9 9f 3a 7d 7e 8f 38 12 98 17 3a 43 be b9 37
       0.0012186109 6.842332e-05 0.0005782853 2.2142316e-05
000020 87 5a 07 3c 32 7d fb 39 61 c7 8b 3c 5a 00 71 3a
       0.0082613295 0.00047967728 0.017062845 0.0009193473
000030 0f 98 3a 3a f6 bb 28 38 1e cd 23 3b 09 87 bd 38
       0.00071179954 4.0229374e-05 0.0024994086 9.0373745e-05
000040 34 ac 10 3d 13 57 d8 3a d1 dd bf 3b b2 2a ed 39
       0.035320476 0.0016505442 0.0058553 0.00045235973
000050 ea 26 24 3b 01 db 46 39 2d b4 72 3b 15 cd bf 38
       0.0025047609 0.00018964337 0.0037033663 9.145789e-05
000060 87 57 98 3c f9 c7 8d 3a c3 ba d6 3c ba 6a af 3a
       0.018596424 0.0010817043 0.026212102 0.0013383247
000070 a9 5c 8b 3a fa f2 d4 37 dc 22 38 3c a3 f0 3f 3a
       0.0010632473 2.5385514e-05 0.01123878 0.00073219294
000080 93 f8 57 3b 84 af 22 38 f9 35 2b 3d 94 34 2b 3b
       0.0032954558 3.878727e-05 0.04179952 0.0026123868
000090 56 c4 1c 3c c6 1d f6 39 f3 9a ca 3a 0e 83 40 38
       0.0095682945 0.0004694296 0.0015457555 4.589842e-05
0000a0 15 d0 55 3c f8 72 3a 3a 40 06 96 3c 2f d5 8b 3a
       0.013050099 0.00071124686 0.018313527 0.0010668392
0000b0 fc 33 47 39 ab 6a af 37 2e 5e 25 3c 14 4b 0b 3a
       0.00018997485 2.0911297e-05 0.010093255 0.0005313617
0000c0 74 bc 21 3b c6 4f da 38 fe 0f 96 3b 58 6f 45 38
       0.0024678977 0.00010409909 0.004579543 4.7072157e-05
0000d0 f6 7e c2 3b 6b a6 b2 39 e7 45 02 3c e6 e6 f2 37
       0.005935545 0.00034074797 0.007951236 2.8956169e-05
0000e0 d1 90 33 3b 08 d4 ae 37 65 ed 7b 3c 7b 56 4c 39
       0.002739955 2.0841151e-05 0.0153764235 0.00019487173
0000f0 49 c9 d9 3c 80 81 62 3a 9c b5 36 3c b2 79 19 3a
       0.026585238 0.0008640513 0.0111516975 0.0005854621
000100 b5 c8 44 3b 52 f3 18 39 6e bb fe 3a af 5c 6e 38
       0.0030026857 0.00014586493 0.001943452 5.682994e-05
000110 e6 22 c8 3a b9 ba c8 38 40 c1 a8 39 9a be 7d 37
       0.001526919 9.571523e-05 0.0003218744 1.5124353e-05
000120 fa 50 26 3b 86 38 0b 38 ae ee 23 3c 5e 75 bf 39
       0.0025377856 3.3192824e-05 0.010005636 0.00036517804
000130 91 71 8c 3b a3 eb 86 39 59 cc 8e 3d 11 80 52 3b
       0.004285999 0.00025734035 0.0697257 0.003211979
000140 16 ff 14 3c 20 cb 18 3a f0 a2 e0 3b 93 d9 af 39
       0.00909402 0.0005828608 0.006855361 0.00033540706
000150 58 4f b2 3b ad ec a5 39 7a b3 bb 3c 8b 2b 7a 3a
       0.0054415874 0.0003164759 0.02291273 0.00095432316
000160 d3 33 a9 3a 29 9e c8 37 45 7d 63 3d 6e a4 50 3b
       0.0012909122 2.3915507e-05 0.05553939 0.003183629
000170 e4 8b 0e 3c e4 4c 82 39 9d 47 87 3c 6f 44 5e 3a
       0.008700345 0.0002485282 0.01651364 0.00084788253
000180 0b 42 5f 39 a7 96 d0 37 01 f1 94 3b fd 2f 88 39
       0.0002129154 2.4865685e-05 0.0045453315 0.00025975695
000190 d9 57 93 3b 29 82 91 39 3a 25 0a 3c af f6 e2 39
       0.0044965562 0.00027753532 0.008431727 0.00043289873
0001a0 10 67 33 3d c7 2e 28 3b fa 44 f9 3b e8 4a dc 39
       0.04379946 0.0025662647 0.0076070996 0.0004201748
0001b0 13 72 0f 3c d8 af 0e 3a fc ed 71 3b 0e cf db 37
       0.008755225 0.0005443073 0.0036915531 2.6203252e-05
0001c0 fb ae 02 3a 5c c3 23 38 e4 3d d2 3b 7e dc 5a 38
       0.00049851806 3.904417e-05 0.0064160693 5.21806e-05
0001d0 91 b5 99 3d 2a 68 8f 3b 8f 4b 64 3b 18 f1 b6 37
       0.07505334 0.004376431 0.0034835075 2.1808359e-05
0001e0 3b 55 a9 3a f8 e4 b7 38 46 9c 6e 3c ef 0c 60 3a
       0.0012919077 8.768769e-05 0.014563626 0.0008546849
0001f0 de 5f d6 3a 69 06 e7 38 4a 4d 4f 3c 25 ce 23 3a
       0.0016355475 0.00011016132 0.0126527045 0.00062486745
